model.pth (torch, 32576 bytes, 4 tensors)

linear1.weight f4 [512, 11]
000000 d9 e6 bc be a5 c2 bb be 26 8e ae 3d 64 23 e0 3e
       -0.36894873 -0.3667194 0.085232064 0.43777
000010 dc 2b d1 3e b2 4f a3 3e 5b 08 68 be ca be fd 3d
       0.40853775 0.3189674 -0.22659437 0.12389906
000020 d7 69 3b 3e 8b 0a 1b 3e c0 eb b9 be 2a b0 f2 bc
       0.18302093 0.1514074 -0.36312675 -0.029625017
000030 38 97 0e 3f 0e ff ae be c0 7d 8f 3e e7 48 50 3e
       0.5569949 -0.34178966 0.28025627 0.2034031
000040 e2 20 78 3e 21 da 0b be 6b 98 cc 3d ac 19 9f be
       0.24231294 -0.13657428 0.09990009 -0.31074274
000050 db 01 67 3d 95 da a0 be 37 72 61 be 61 78 64 bd
       0.056398254 -0.31416765 -0.22016226 -0.055778865
000060 da a2 5e 3f 99 23 8c be ff d4 28 3e 79 62 cd be
       0.8696724 -0.2737091 0.16487502 -0.4011419
000070 06 0b cd 3a 1f fe 68 3e e9 58 23 be 1a ac b5 be
       0.0015643544 0.2275319 -0.15951885 -0.35482866
000080 42 f7 68 3d af 42 b0 bd 2a 53 1d 3f 51 27 c0 be
       0.05687643 -0.08606469 0.61455023 -0.37529996
000090 0e b9 8a be 0e 59 a0 bd 43 ba 50 3e f0 48 3c bc
       -0.2709431 -0.07829486 0.20383553 -0.011491999
0000a0 a1 87 66 be 3a 92 c3 bd cf a9 24 3e 19 ae 52 3d
       -0.22512676 -0.09549375 0.16080402 0.051435564
0000b0 c1 10 65 be 9a 4c 6c be ac db 3d 3f 6f a3 a1 3e
       -0.22369672 -0.23076096 0.7416332 0.31570002
0000c0 f8 34 38 3d fd 90 50 bd 47 f1 51 bd 8e 4a 36 3d
       0.04497239 -0.05091952 -0.05125549 0.044504695
0000d0 b5 ad 39 3e 32 b2 0c 3e 42 35 3e be 4f 3b 78 be
       0.1813267 0.13739851 -0.18575004 -0.24241374
0000e0 5d c2 13 be 28 ed 00 3f 70 b6 ac be c2 a9 8a 3e
       -0.14429612 0.5036187 -0.3373294 0.2708264
0000f0 86 f8 5c 3d 7e 56 35 bd 18 c0 8d be 6b 82 55 3e
       0.053947948 -0.04427194 -0.27685618 0.20850532
000100 55 46 a8 be b7 d5 25 3e 9a bf 85 3e f3 d2 fd 3e
       -0.3286616 0.16194807 0.26122743 0.49575004
000110 26 f2 c0 bd b2 6e da 3b b9 90 89 3e d2 13 23 be
       -0.09421186 0.006666028 0.26868227 -0.1592553
000120 6f a3 58 3d 8d 7d 46 bb 99 06 78 be 13 dd 68 3e
       0.052890237 -0.0030287236 -0.24221267 0.22740583
000130 9e 00 47 bc cc db 79 bd 72 7c 18 be 97 0c 78 be
       -0.012146143 -0.06100063 -0.14891222 -0.24223553
000140 0e a8 61 bd 57 04 f3 bd a8 3b 10 bf 95 ec a0 3e
       -0.05509191 -0.11866062 -0.5634103 0.31430498
000150 ef 1b 3b be f2 4f d2 bd 23 6a 94 3e d0 e2 0d bf
       -0.18272375 -0.102691546 0.28987226 -0.55424213
000160 ce e3 5c 3b 67 c6 63 3f 9e 19 6b bd 85 9e 8c be
       0.0033705118 0.8897461 -0.057397477 -0.2746469
000170 a5 87 0a be 40 fa 36 3e b4 b8 a5 be ab 5a 8b 3e
       -0.13528307 0.178689 -0.3236748 0.27217612
000180 10 f0 8a be ee e7 52 3e 27 66 e3 3c 76 c2 cc 3d
       -0.27136278 0.20596287 0.027758671 0.09998028
000190 a4 b0 b3 bd ab 86 0d 3e 35 c3 18 3c 92 49 0f be
       -0.08773926 0.13820903 0.009323885 -0.13992909
0001a0 82 25 5b be 59 32 62 be 7b 67 78 bd 8b 7c 9a 3d
       -0.21401027 -0.22089519 -0.06064556 0.07543286
0001b0 ac 8f 64 be 28 cc 34 be 5c e0 16 be 1e d5 3a 3f
       -0.22320431 -0.17656004 -0.14734024 0.7298144
0001c0 68 5a 2c 3f 5a ec 85 be 37 48 97 be 95 e5 4a be
       0.6732545 -0.26156884 -0.29547283 -0.19814141
0001d0 fa d0 c3 bc 59 fe b5 bd d0 67 c8 bd a4 9d 3b 3e
       -0.023903359 -0.088864036 -0.09785426 0.18321854
0001e0 84 6b 2d 3e 00 eb 4d 3d 95 28 d2 3e f6 ea 4d be
       0.16935545 0.05027294 0.41046587 -0.20109162
0001f0 97 20 09 bd 68 46 b3 3d 6e b8 f3 3d 4b 9b 71 be
       -0.033478346 0.08753663 0.119004115 -0.23594396
000200 a1 de 0a 3d 9b 9f be be 01 d2 e6 bd 26 f6 ac be
       0.03390372 -0.37231144 -0.11270524 -0.33781546
000210 bd 54 e3 3d 5a 12 1e be 43 e9 4f be 8f 3c 88 3e
       0.11100147 -0.15436688 -0.20303826 0.26608703
000220 c1 db a8 be 88 c6 46 3e 72 35 b8 be 84 5a d8 be
       -0.3298016 0.19411671 -0.35978276 -0.42256558
000230 b1 03 00 3e f5 94 27 bd 2d 3c c3 be 76 2c 09 be
       0.12501408 -0.04091354 -0.38131848 -0.13395867
000240 9d 89 13 be d0 08 13 3f 41 bf 41 3d 77 06 03 be
       -0.14407964 0.5743532 0.047301535 -0.12795435
000250 6f 50 66 3e 10 55 0c 3e bd ca 90 be 8a b8 0d be
       0.2249162 0.13704324 -0.28279677 -0.13839927
000260 31 eb 9b 3d 08 2d 1a be cd 91 26 bd 3e 2d 38 3f
       0.076132186 -0.1505624 -0.04066639 0.71944034
000270 3c d0 c9 be 9a 6b be bd 5b bc 9b 3d f4 7d 0e be
       -0.39416683 -0.09297867 0.07604285 -0.13915235
000280 3f a4 0b bf c2 4a b0 3e 24 63 6c bd 28 7a 76 bd
       -0.54547495 0.34432036 -0.057711735 -0.06017509
000290 00 54 d7 be 80 c0 8c be cb 2c 8f be 60 d3 e8 bc
       -0.42056274 -0.27490616 -0.27963862 -0.028421104
0002a0 58 b9 72 be fe 01 f3 bd bd 06 2d be c6 b7 82 3c
       -0.23703516 -0.11865614 -0.16897102 0.01595677
0002b0 5e 74 37 be ac 0b 6c be 2f 75 9b bd af 6c 05 be
       -0.17915484 -0.23051327 -0.0759071 -0.13029741
0002c0 d5 05 12 3f 9f 7b 5c 3c 83 a9 bb 3c e3 96 5a 3e
       0.5704015 0.013457208 0.022907978 0.21346621
0002d0 2d 9b 0d 3e ea 22 1d be f0 68 67 be f1 88 57 be
       0.13828726 -0.1534535 -0.22598624 -0.21048333
0002e0 4c 5e 29 be 5f 69 04 3e 91 8f 39 3e 88 00 51 3e
       -0.16539878 0.12930821 0.18121172 0.20410359
0002f0 77 48 45 3d f0 c4 45 3d 26 98 96 be f6 e1 da bc
       0.04816481 0.048283517 -0.29412955 -0.026719075
000300 e9 d5 d2 3e 94 5a e2 3d d2 c2 bd 3e 0a e4 35 bc
       0.41178825 0.11052433 0.370627 -0.011101732
000310 8c ae d7 be 43 27 ce be 80 d0 c7 3d 45 a9 38 bf
       -0.42125356 -0.4026433 0.09756565 -0.72133285
000320 26 dc 9c 3e 69 12 38 3e 33 e8 aa 3e 39 c9 8a 3e
       0.3063671 0.17975773 0.3338028 0.27106646
000330 0f d3 e2 be 1c bd 89 be 27 a6 16 3e 18 8c 5d 3d
       -0.4430165 -0.26902092 0.1471182 0.054088682
000340 31 10 a0 bd bd 6a a9 3c 0a 11 fd bc 13 63 8c 3c
       -0.07815588 0.02068078 -0.030891914 0.017137086
000350 a2 21 ff be 74 d3 80 bd be 48 88 be cd 19 81 3e
       -0.49830347 -0.062903315 -0.26617998 0.25214997
000360 7f 32 00 be 7f bf 03 bf 98 23 b6 be 4b d1 1f 3e
       -0.12519263 -0.51464075 -0.3557403 0.15607183
000370 3c a4 c6 bd 29 f8 a6 3d 32 9d 4a 3e 5b c5 b1 be
       -0.09699294 0.081528015 0.19786528 -0.34720883
000380 57 fe 05 3e ab 87 74 bd ba 2c d2 be 44 3b 5d be
       0.13085304 -0.059699696 -0.4104975 -0.2160464
000390 82 1f 4b 3e ac 7e 97 be 42 43 96 be 00 1b b3 3e
       0.19836238 -0.2958883 -0.2934819 0.34981537
0003a0 d0 ab 0d 3f 54 6f 62 be 37 cd e9 bd c1 eb 9a be
       0.5534029 -0.22112781 -0.11416095 -0.3025799
0003b0 e1 2d ce be 3c 63 09 3e 34 e3 13 be ab d7 5a 3e
       -0.40269378 0.13416761 -0.1444214 0.21371333
0003c0 c5 82 53 3d cf dd b7 3d ce 81 c0 3e 20 d2 2f bf
       0.051638383 0.089778535 0.37599033 -0.6868
0003d0 6b f8 f0 be 79 d8 90 3e 93 e0 c8 3e ad 8b 9b 3e
       -0.47064528 0.28290156 0.39233837 0.30380002
0003e0 89 bb 96 3e 9d a2 57 3b 1f 7a 6b 3d f7 04 c8 bd
       0.29439953 0.0032903322 0.05748951 -0.09766572
0003f0 ba ff 34 be 2c ff 6c 3e 79 f1 c6 bd 48 db ea 3e
       -0.17675677 0.23144215 -0.09714026 0.45870423

linear1.bias f4 [512]
000000 be b8 86 3e e6 16 8b bb a2 84 43 3e a8 3c 88 3e
       0.26312822 -0.004244673 0.19093564 0.26608777
000010 29 6d 95 bd 50 12 16 3e 99 92 9a bd 16 92 89 3e
       -0.07296211 0.14655423 -0.075474925 0.26869267
000020 c3 f0 1c 3d 3d 18 9c be f5 a0 1b 3e 88 a1 89 3d
       0.038315546 -0.30487242 0.15198119 0.06720263
000030 59 1c 19 3e d3 fc 10 3e 26 73 0b 3e 14 bc 67 3d
       0.1495222 0.14158945 0.13618144 0.05657585
000040 0a 4a 01 bd 6c 31 1c be 46 e7 f2 3e 62 e0 51 3e
       -0.03156475 -0.15253228 0.47442073 0.20495752
000050 0d ca 84 3d 4d 6d a4 3d a6 aa 1d 3f 6a db 7f 3d
       0.06483851 0.0802866 0.61588514 0.06246511
000060 85 16 8b 3e 6b 2b d0 bb 93 bb 9c 3e 38 4f 33 bd
       0.2716562 -0.006352832 0.30611858 -0.04377672
000070 68 8e 9a 3d bf a3 ab 3d 45 a3 cc 3e e0 eb 00 3e
       0.07546693 0.083808415 0.39968315 0.12589979
000080 7b 1a 09 3f 80 3c 90 3c e9 94 22 3e f3 54 8b 3e
       0.5355603 0.017606974 0.15877117 0.2721325
000090 4a a5 5d bb 05 6c 4b be 22 23 5d 3d a6 b2 06 3f
       -0.0033820444 -0.19865425 0.053988583 0.52616346
0000a0 1d 58 ed bd ca 78 af 3d 00 1a 59 bd 17 8d 98 be
       -0.11589072 0.085679606 -0.05300331 -0.29795143
0000b0 2c a6 f9 bd 02 5e 58 3e 3b 7c 4f 3e 04 47 e1 bd
       -0.12189898 0.21129611 0.20262234 -0.10999873
0000c0 e5 7d d5 bd cd 52 fa 3d 74 60 96 bd a6 ce 68 be
       -0.10424403 0.12222824 -0.07342616 -0.2273508
0000d0 cc 88 96 3e 2b 14 87 be 46 94 69 be 8a f9 85 bd
       0.29401243 -0.26382574 -0.22810468 -0.065417364
0000e0 ba 10 bb 3e 93 c8 14 bd 1a 9c 65 be 8e fe 33 3e
       0.365362 -0.036324095 -0.2242283 0.17577574
0000f0 d3 02 86 3f bc 26 ac bb be f0 49 be 8c bb 25 be
       1.0469612 -0.005253641 -0.19720742 -0.16184825
000100 74 e4 c2 bd 20 ac 93 be bf 33 78 be 5f 74 4f be
       -0.0951623 -0.28842258 -0.2423849 -0.20259236
000110 e2 0f 0b 3d 34 46 f2 bc e0 3f 3e be 43 f7 c1 bd
       0.033950694 -0.029574491 -0.18579054 -0.094709896
000120 24 e6 31 3f d7 c5 60 bd 0f b3 36 3e 82 22 c6 bd
       0.6949179 -0.054876175 0.17841743 -0.096745506
000130 fe a7 3c bd 04 77 11 be 81 4a cd 3b 39 95 1b bc
       -0.046058647 -0.14205557 0.006264985 -0.009496027
000140 f4 32 11 3e 8e f5 b5 be cb 17 4e 3e e6 5e a1 3c
       0.14179593 -0.35538906 0.20126264 0.019698571
000150 f6 56 94 3e d3 74 f8 3c 43 59 c3 bd fc 40 9a 3e
       0.28972596 0.030329144 -0.0953851 0.30127704
000160 0b 1d bc 3d 47 43 1d be 2b d3 9a 3e 5e d8 b1 3c
       0.09185227 -0.15357696 0.30239233 0.021709617
000170 d1 1c ca 3e 44 41 0a be 3e 91 1c 3f ee ba e8 bc
       0.3947511 -0.1350146 0.6115912 -0.028409448
000180 4a 3d a6 3b bc 2f 7a be f4 a3 e5 3d 4b 59 14 3e
       0.005073224 -0.24432272 0.11212912 0.14487188
000190 6c 48 99 ba cc 61 41 3e f1 6e d1 3d ab 46 ae 3c
       -0.0011694557 0.18884963 0.102262385 0.021273931
0001a0 fa 69 a2 bc 23 14 05 3d 1a 35 02 bc 98 28 25 be
       -0.019825924 0.032489907 -0.007947231 -0.16128767
0001b0 38 09 1c 3f cc 25 7e be e9 e9 75 be 47 61 29 be
       0.60951567 -0.24819106 -0.24015011 -0.16541015
0001c0 32 25 ae 3e f8 8d 77 be b2 c8 79 bc 69 d4 8e 3e
       0.34012753 -0.2417525 -0.015245603 0.2789643
0001d0 af 68 8b bd 09 89 13 3e fc 41 a0 3f 05 1d 49 be
       -0.06807076 0.14407744 1.2520137 -0.19639976
0001e0 c9 d9 80 be a9 35 d4 3d 02 4f 5d 3e 3b 7d f0 3e
       -0.25166157 0.10361797 0.2161217 0.46970543
0001f0 d0 6d f9 3e 8f 2e 20 be 94 d9 1e 3e b0 85 06 3c
       0.48716593 -0.1564276 0.15512687 0.0082105845
000200 37 2b 23 3f 48 f4 cb 3d 19 26 ed bd b4 f7 ad 3f
       0.63737816 0.09958702 -0.11579532 1.3591218
000210 98 f8 4b be 71 75 1f 3e ce 59 2d 3e 82 5c 69 3f
       -0.1991905 0.15572144 0.16928789 0.9115678
000220 ff e8 63 3f e2 d3 f4 bd cc 72 05 be d7 71 3b 3f
       0.890274 -0.11954476 -0.13032073 0.7322058
000230 be 60 4e be 46 c0 c2 bd ca 78 2c 3e 31 74 20 3e
       -0.20154092 -0.095093295 0.16842952 0.15669324
000240 71 5d 84 3d 07 66 25 3e b5 46 1f 3f 42 2e 18 3f
       0.06463135 0.16152202 0.62217265 0.59445584
000250 b3 af c1 bd 75 69 57 be 0e 7e 25 3e bb b5 8d 3d
       -0.0945734 -0.21036322 0.16161367 0.06919428
000260 25 7e c9 3c d6 7e 1a bb 6b 40 6d be 66 8c af 3d
       0.024596283 -0.0023574135 -0.23169105 0.08571701
000270 4e 72 85 3a 0b ba da bd 18 08 73 3e cf 34 d6 3d
       0.001018116 -0.10680016 0.23733556 0.10459291
000280 8d 60 42 be ae 04 cb 3d 02 ea 47 be bd 11 59 3d
       -0.18982144 0.09913002 -0.1952286 0.052995432
000290 3d db 48 3d 0e a0 fe 3e d4 1e 6e bd c2 11 30 bd
       0.049037207 0.49731487 -0.05813487 -0.042985685
0002a0 c7 8d f3 bc 3e 16 19 be d9 db 1f be a9 90 13 3f
       -0.02973069 -0.14949891 -0.15611209 0.5764261
0002b0 9e cf 1c be ca cc 1f be 9c b5 4b bd 8f c5 46 3e
       -0.15313575 -0.15605465 -0.049733743 0.194113
0002c0 d9 9a 10 3e 7f 56 6f 3d fe d5 1d be c3 2d 11 be
       0.1412157 0.0584321 -0.15413663 -0.14177613
0002d0 f2 87 fc 3d ac 3f 99 3e 04 74 2d 3d 5a c5 20 3f
       0.12330617 0.2993139 0.04234697 0.62801135
0002e0 e9 71 05 be 9f 96 d6 bd 11 da f3 3e 57 9a 06 3e
       -0.13031735 -0.104779474 0.4762731 0.13144813
0002f0 f8 d6 17 3e 83 14 f8 bc 0e dd 04 be d3 ea 13 bc
       0.14828098 -0.030283218 -0.1297495 -0.009028154
000300 8d 74 a5 bc aa c6 1b 3e 5a 68 8e 3e 78 26 94 3c
       -0.020197177 0.15212503 0.2781399 0.01808475
000310 b8 bb 88 3e 1e 87 ce 3c 63 5f 15 be cc 8c 76 3d
       0.26705718 0.025210913 -0.14587168 0.060192868
000320 85 ee 39 be ea cd 5d bd 06 a5 0f bd a8 fd a0 3e
       -0.18157394 -0.054151453 -0.035069488 0.31443524
000330 46 b6 3c 3e 08 b3 86 be 4d ae 65 be 23 8d 52 be
       0.18428907 -0.26308465 -0.22429772 -0.20561652
000340 71 11 72 3d c1 57 dc 3e 5f f7 50 3f ee 9d d7 3d
       0.059098665 0.430357 0.8162746 0.105281696
000350 0f 7c 26 bd e0 78 5b 3c ce a9 34 be e0 d0 91 bb
       -0.040645655 0.013395518 -0.176429 -0.0044499487
000360 d4 69 82 bd de f3 79 3e 7c 1e 1b be 1b f5 3a be
       -0.06367841 0.24409434 -0.15148348 -0.18257563
000370 ff ec 8d 3f 1f da 15 3f d4 5b 65 be 38 a2 01 be
       1.108795 0.5853595 -0.22398311 -0.12659538
000380 8b eb fa 3c cb 9d 50 3e 4a f0 38 3d 9a 87 9c 3e
       0.030629894 0.20372693 0.045151033 0.30572206
000390 aa 42 4c be 7b 47 34 3e 05 26 59 be f0 74 08 be
       -0.19947305 0.17605393 -0.2120591 -0.13325858
0003a0 76 01 55 3f 02 23 16 3f 28 f6 52 be 69 85 be 3d
       0.83205354 0.5864717 -0.20601714 0.0930279
0003b0 fe e9 84 3e d5 09 68 be 44 98 72 3f 56 44 5a 3e
       0.25959772 -0.2266 0.9476359 0.2131513
0003c0 50 30 a4 bb 73 ab 57 be fa 3b 30 3f 48 6e 55 3e
       -0.005010642 -0.21061496 0.68841517 0.2084285
0003d0 fc 77 f7 3e 1c 17 d0 3e 20 f7 c2 bc 4d 02 89 be
       0.48333728 0.4064263 -0.023799479 -0.26759568
0003e0 26 69 1f 3e 11 bc 64 3e 3b bc 59 bd 02 52 86 be
       0.15567455 0.22337367 -0.053158026 -0.26234442
0003f0 f8 0a b1 3e 4b 26 f4 3d 7a 88 6c 3d 05 0f 27 be
       0.3457868 0.11921366 0.05774734 -0.16314323

linear2.weight f4 [3, 512]
000000 1d 5f a1 3e c9 e6 ea 3d 8e 73 07 3e 6d 14 01 3e
       0.31517878 0.114698 0.13227674 0.12605448
000010 46 fe a7 3d 61 28 48 3e ad 8c d7 bd 7d b1 95 be
       0.08202796 0.19546653 -0.10524879 -0.29236975
000020 2a 25 91 3d 42 91 91 3c b4 9d b9 3d bd aa 27 3d
       0.070871666 0.01776946 0.090632826 0.040934313
000030 d9 7d e6 bd 14 0f 45 3e 24 44 51 3e 56 0b 73 3c
       -0.11254472 0.19244033 0.2043615 0.014834246
000040 cd 7e 80 be 4a bb 89 be 67 cc 09 3e 22 e2 5c 3e
       -0.2509674 -0.26900703 0.1345688 0.21570638
000050 d3 03 0d 3e 8b ac 4f bc 33 07 d3 3d 48 e4 3a 3b
       0.1377099 -0.012675415 0.103041075 0.0028517414
000060 77 09 52 be f6 9c b0 3d 9d 9b 1b bd 89 2d be 3d
       -0.20511423 0.08623688 -0.0379902 0.09286029
000070 7d 5c 62 3e b3 78 b7 3e 12 48 ff 3d b6 63 2c be
       0.22105594 0.35834274 0.12464918 -0.16834912
000080 b2 e8 a7 3e cd ac 2d bd 12 1a 84 3e fb 55 6b 3e
       0.3279472 -0.042401124 0.2580114 0.22982018
000090 23 19 80 3e 63 de a4 3d 3d 5a 78 3e 6c bf 2c 3e
       0.25019178 0.080502294 0.24253173 0.16869897
0000a0 26 1c 6b 3d b4 1f 7b be be af 07 3e d9 e0 1b be
       0.05739989 -0.24523813 0.13250634 -0.15222491
0000b0 67 17 b2 be bd 95 a0 3e 23 9c 67 3e 4e 5f 04 3e
       -0.3478348 0.3136424 0.22618155 0.12926981
0000c0 5d 4d 66 3c a2 ff ae 3e 4a 65 ad be 30 3b a8 bc
       0.014056531 0.34179407 -0.3386634 -0.020536035
0000d0 06 72 c3 3d 7d 72 14 3d 69 e5 71 3e 57 e2 9c 3e
       0.095432326 0.036241997 0.2362267 0.30641434
0000e0 af f3 a7 3e cc b1 fd 3e f8 d2 93 bd 1f 91 05 3e
       0.32803103 0.4954971 -0.072179735 0.1304364
0000f0 eb cf bc 3e f4 3d 03 be 4e cc 0d be b0 b0 9c bd
       0.3687738 -0.12816602 -0.13847467 -0.07650888
000100 dd b3 5c be c7 6b 16 bd 1f bd ad bd 7d 06 76 bd
       -0.21552987 -0.03672388 -0.084833376 -0.06006478
000110 ed 14 13 3e 26 1f bd 3c f5 14 c2 be 19 da 99 be
       0.14363451 0.023086142 -0.37906614 -0.30049208
000120 ee 34 08 3e 6f fe ae 3e 51 52 bc bd 1a e7 6a bd
       0.13301441 0.34178492 -0.09195388 -0.057349302
000130 ff 9a fa bd 94 22 89 bd a0 70 73 3e 60 31 2a 3e
       -0.122365944 -0.066960484 0.23773432 0.16620398
000140 3d 22 c7 3d 38 d4 93 bc d2 0a 61 3e fd 0b ba 3d
       0.09723327 -0.01804553 0.21976784 0.09084318
000150 d1 7c 88 3e 2d d7 d0 be a0 9e 27 3d f3 27 83 3e
       0.26657727 -0.40789166 0.04092276 0.25616416
000160 a2 3d 60 bc df 24 20 be a3 8b a8 3e 51 ac 66 3e
       -0.013686569 -0.15639065 0.32919034 0.22526671
000170 18 17 81 3e 79 b2 24 3d 9b fd 17 3e 70 7c 33 3d
       0.25212932 0.040209267 0.14842837 0.043819845
000180 e2 22 5d 3e 16 e5 d5 bd 07 b6 91 3d 92 5a bb 3e
       0.21595338 -0.10444085 0.07114797 0.36592537
000190 fb 82 88 3e 4d 03 10 3e 28 4f 82 3d 04 16 03 bf
       0.2666243 0.14063759 0.06362754 -0.5120547
0001a0 43 d4 e2 bd a5 ab 52 3e 55 86 85 3d c5 9e a1 be
       -0.11075642 0.2057329 0.065197624 -0.31566444
0001b0 d2 e9 d2 3d 35 63 29 be 9e 3d a1 3e 4d 88 b7 be
       0.10298504 -0.1654175 0.31492323 -0.35846177
0001c0 be 8a a3 3e 32 84 28 be a8 e3 02 3e f4 98 69 3e
       0.3194179 -0.16456679 0.12782156 0.22812253
0001d0 bd 81 66 3e 2b 6f 2f be 2d 94 8f 3e 32 07 28 3e
       0.22510429 -0.17132251 0.28042737 0.16408995
0001e0 b1 ae cb be ba fb 6a bd 5c 93 97 3e 10 f1 7a 3e
       -0.39781716 -0.05736897 0.29604614 0.2450602
0001f0 52 34 54 3e 25 0f 00 bd 50 ac 2c 3e 41 a5 0d 3d
       0.20723084 -0.031264443 0.16862607 0.034581427
000200 25 13 a0 3e c2 a6 37 3e f4 23 bc be 1f b4 98 3e
       0.31264606 0.17934707 -0.3674618 0.2982492
000210 cb 61 81 3c cc 62 9a 3e c1 2a 9c be c5 55 65 3e
       0.015793702 0.301535 -0.3050137 0.22396
000220 0a 9c 32 3e b5 07 9a 3d 43 51 d1 be 5a 88 56 3e
       0.17442337 0.07521001 -0.4088231 0.20950451
000230 b0 f9 a0 be e0 50 c1 3d 33 cd 4b 3e 02 9f bd bd
       -0.31440496 0.09439254 0.19902496 -0.09258844
000240 80 a2 e2 3e 5b af 28 3e c7 c2 20 3e b3 db a1 3e
       0.44264603 0.16473143 0.15699302 0.3161293
000250 51 77 2f 3e 60 9b 7d be d5 d8 3a be f8 42 4d 3e
       0.1713536 -0.24766302 -0.18246777 0.20045078
000260 5f 1c fe 3d 96 10 70 bd ce 76 99 bd cd fe 5d be
       0.12407755 -0.058609568 -0.07493363 -0.2167923
000270 d4 13 39 3d 81 f9 47 3d 82 9f 49 3e 2f c5 2b bd
       0.045184925 0.04882193 0.19689754 -0.041936096
000280 fa 17 6c 3d 9b 7e 37 3e 2e e8 40 3e 0a b4 2f 3d
       0.057640053 0.1791939 0.1883857 0.042896308
000290 a4 4a a8 bd 91 5b 69 3e 6a d7 4b be 44 a0 51 3e
       -0.082173616 0.22788836 -0.19906393 0.20471293
0002a0 9f 7f e7 3d 5a 9e 86 3e 15 9c 99 3e 23 55 79 3e
       0.11303639 0.26292688 0.30001894 0.24348883
0002b0 d3 a8 02 be 0e 70 3f bd 5e 49 9c be b2 98 42 3e
       -0.12759714 -0.046737723 -0.30524725 0.19003561
0002c0 d6 76 ac bd 50 85 fd 3b fb 48 a9 be 6b c2 52 3e
       -0.08421104 0.0077368394 -0.33063492 0.20581977
0002d0 19 c5 85 3e 46 a9 af 3e 45 42 a4 3e 29 ea 54 3e
       0.26126936 0.34308833 0.3208181 0.2079245
0002e0 a2 a9 bc 3d a0 c7 94 be 0d b4 84 3e 16 fb 97 3d
       0.092120424 -0.29058552 0.25918618 0.07420938
0002f0 84 6a a3 3e e7 0c bc bd c7 50 05 3e 9a 55 9f 3d
       0.31917202 -0.091821484 0.13019095 0.07779999
000300 5a 20 0e 3e ff 31 00 be 7f 7b a8 3d 2a f4 28 3e
       0.13879529 -0.12519072 0.0822668 0.16499391
000310 18 b5 10 3e ce ea 1e be a1 2a 02 3e 71 7e 80 bc
       0.14131582 -0.15519258 0.12711574 -0.015685292
000320 6f fb 38 3e 73 f5 8b be 59 c6 2c be c2 b1 f6 3d
       0.18064664 -0.273357 -0.16872539 0.12045623
000330 ad d7 63 3e 45 1c 1c 3d b5 3d 8c 3d 18 0c 1e 3e
       0.22250243 0.038112897 0.06847707 0.15434301
000340 d7 54 c8 be 03 a5 c5 3e 2a d2 87 3e 63 ff a7 bc
       -0.39127228 0.38602456 0.2652753 -0.02050752
000350 e1 8e c4 bd ff af 6a 3d 51 7d 44 be ee 86 91 3e
       -0.095975645 0.05729675 -0.1918843 0.28423256
000360 ee 5e 0b 3e da ea 62 be f2 b9 dc 3d ac aa f1 3c
       0.13610432 -0.22159901 0.10777654 0.029500328
000370 e1 96 89 3e a3 bc 03 3e a3 70 31 bd 24 bd 9c bc
       0.26872924 0.12864928 -0.04332031 -0.019133158
000380 33 f1 b8 3e 17 49 08 be 3a fa 5b be 76 cb bb 3d
       0.3612152 -0.13309132 -0.21482173 0.091696665
000390 44 d3 6a be 9b 77 16 3e 0d 42 4f bc 02 2f 6f 3d
       -0.22932154 0.14694063 -0.012650025 0.05839444
0003a0 22 9c 6f 3e b9 b3 0c 3e 9a 4d 97 be e0 15 18 3e
       0.23399404 0.13740434 -0.29551393 0.14852095
0003b0 22 c5 86 3e 06 71 bf bb 2f 66 1f 3e 51 91 86 be
       0.26322275 -0.005842331 0.15566324 -0.26282743
0003c0 75 47 f9 3d fa 90 0b be 90 e9 77 3e 43 6f c4 3c
       0.121718325 -0.13629523 0.24210191 0.023978835
0003d0 a1 f3 98 3e 88 4d 19 3e f6 20 e8 3b 74 59 63 3c
       0.29873374 0.14970982 0.0070840074 0.013876308
0003e0 bb 97 b4 bd ff ed d5 3d 9a 09 01 3e 46 5b 58 bc
       -0.08818003 0.10445785 0.12601319 -0.013205355
0003f0 4b cd 15 3e 68 94 17 3e 9d 16 4f 3e 1c d2 70 3e
       0.14629094 0.14802706 0.2022347 0.2351765

linear2.bias f4 [3]
000000 2d 7f 5f 3e fc ac 2b 3e 5e 3d 06 3e
       0.21825857 0.16765207 0.13109347
